build_tools/disc_saves.pth (torch_old, 114819 bytes, 5 tensors)

projection.P f4 [1, 3, 36, 50]
000000 58 83 89 3b 37 9e 8e 38 44 75 ca 3b 51 43 70 3a
       0.0041965656 6.8005575e-05 0.00617853 0.00091653044
000010 2a e6 a0 3a 87 50 96 3b 3d a4 4a 3b ce 77 ce 3b
       0.0012275625 0.0045872363 0.0030920648 0.006300903
000020 53 9f 42 3a e3 82 c2 3b ae 7f 98 b9 b0 32 ce 3b
       0.0007424254 0.005936013 -0.00029086828 0.0062926635
000030 56 4d 9e 3b c3 d7 00 3c 2a 21 b1 3b fe 01 85 3b
       0.0048309965 0.007863942 0.005405565 0.0040590754
000040 f3 2f a8 3b 83 27 ef 3a ae 4e cb 3a 87 fa e7 3b
       0.005132669 0.0018246028 0.0015511119 0.0070794257
000050 e8 2d d8 3b d1 3c da 3b 04 c8 99 3b 88 fb 6c 3b
       0.0065972693 0.006660082 0.004693033 0.0036160666
000060 99 28 49 3b a3 2d 2a 3a 49 60 8b 3b 5b 6a 87 3b
       0.0030694364 0.0006491786 0.0042534214 0.0041325516
000070 8c 15 d4 3b ed b0 d9 3b 14 ce 96 3b 8f f1 8f 3b
       0.006472295 0.0066434056 0.004602203 0.0043928097
000080 70 93 9c 3b 6a 6a 13 3b f9 49 8e 3b 3e 48 c0 3b
       0.004778318 0.0022493848 0.0043423143 0.005867987
000090 a1 a5 cc 3b ad 24 64 3b 24 f2 79 3b e0 9e fc 3a
       0.0062453304 0.00348119 0.0038138712 0.0019273423
0000a0 aa 90 76 3b 11 6a 12 3b b9 08 a4 3a 41 05 bc 3a
       0.0037622848 0.0022341053 0.0012514807 0.0014344828
0000b0 59 59 95 3b 87 6a 9f 3a ca 93 eb 38 46 2f 29 3b
       0.00455777 0.0012162485 0.00011233201 0.002581553
0000c0 fd 48 d5 3b 6f a8 27 3b 73 c0 79 3b 19 96 cc 3b
       0.006508945 0.0025582572 0.0038109093 0.006243479
0000d0 1c f6 7a 3b 6e 43 cb 3b d4 88 e4 3b 7b 7f 06 3a
       0.0038293665 0.0062031066 0.006974319 0.00051306904
0000e0 14 5b 29 3b 10 92 41 3b 6d ba ab 3b da e3 b0 3b
       0.002584164 0.0029536523 0.0052407295 0.005398256
0000f0 6c f8 e9 3a 72 78 fd 39 00 5d e2 3b 77 f9 30 3a
       0.0017850525 0.0004834566 0.006908059 0.00067510403
000100 52 d2 32 3b f5 d5 00 3c bc 06 23 3b 84 07 a5 3b
       0.0027286005 0.007863511 0.002487584 0.0050362963
000110 6d 17 e4 3a 5b 59 94 3b e8 fe bd 3b fc a5 7a 3a
       0.0017402001 0.0045272536 0.0057982095 0.0009561477
000120 b0 c1 8e 3b e1 54 db 3b 78 1e 10 3b d8 ba 08 3c
       0.0043565854 0.006693468 0.0021990817 0.008345328
000130 16 ce e6 3b 56 ac c4 3a ef ad a5 3b 72 f2 4d 3b
       0.0070436103 0.0015004973 0.005056135 0.0031425026
000140 de 02 0a 3b e9 8f d8 b9 2a 9b b7 3b 8d 3c 7f 3b
       0.0021058838 -0.00041305952 0.005603214 0.0038946003
000150 17 16 cd 3b 63 e2 b6 3b 1a e9 3b 3b f6 69 81 3a
       0.006258737 0.0055811866 0.0028672875 0.0009873498
000160 af bd f8 3b 94 8e e0 3b ad 4f e1 3b 00 96 62 3b
       0.0075909714 0.006852934 0.006875953 0.003457427
000170 da b7 be 3b 27 2d ac 3b 41 f6 e4 3b dd a1 0e 3b
       0.0058202567 0.005254406 0.0069873636 0.0021763959
000180 3c 33 f2 3b c4 93 27 3b 3b 2c e6 39 be 59 c3 b9
       0.0073913615 0.0025570253 0.00043901973 -0.00037260161
000190 ef b4 f9 3b 3d 60 7b 3b e6 57 b5 3a a0 5b b9 3b
       0.007620446 0.0038356923 0.00138354 0.0056566745
0001a0 3f 5b 00 3c a9 31 0f 3c bc 96 05 3c 72 0f a6 3b
       0.007834255 0.008739867 0.008153614 0.005067759
0001b0 cf bf d7 38 2d f9 e9 3b f2 13 f2 3b 2e 24 a7 3b
       0.00010287726 0.0071403 0.0073876316 0.0051007485
0001c0 98 20 57 3b 94 80 e1 3b 0d 5a ec 3b ea de b5 3b
       0.0032825824 0.006881783 0.0072128833 0.005550255
0001d0 91 3f 0d 3c a3 10 80 3a 6d e1 9a 3b d3 60 e1 3a
       0.008621112 0.0009770583 0.00472658 0.0017194994
0001e0 9e 5a 43 3b 5e ce de 3b f2 2e 07 3b da c1 03 3c
       0.002980865 0.006799503 0.0020627347 0.008041823
0001f0 cc 59 d9 3b 1e 1f 32 3b 1c 17 a9 3b bc 46 8d 3b
       0.006633019 0.0027179192 0.0051602256 0.0043114107
000200 29 16 ad 3b 18 09 51 3a 2c 21 6b 3b 2f 43 a8 3b
       0.0052821827 0.00079740724 0.0035877926 0.005134962
000210 e2 1a bb 3b 88 2e b4 3b 96 4d 0e 3c d5 b5 00 3c
       0.005709992 0.005498711 0.00868549 0.007855852
000220 30 9d 1c 3a a5 6d c6 3a e4 32 b9 3b 40 38 68 39
       0.00059743505 0.0015138878 0.0056518186 0.00022146199
000230 49 ea d6 3b 3a 1d 2d b8 06 b1 d4 3b fc 79 bf 36
       0.0065586907 -4.1273634e-05 0.0064908294 5.7064444e-06
000240 27 ae 2c b9 c3 3d d5 3a 42 ab d0 3b 8e ea 15 3b
       -0.00016468075 0.0016269017 0.006368072 0.0022875401
000250 a0 b8 38 3b 93 37 55 3b d8 19 0e 3c c1 67 5d b9
       0.0028186217 0.0032534346 0.008673154 -0.00021114854
000260 46 7f 54 3b ed 28 6d 3b 8d 11 bf 3b bc 68 a8 3b
       0.0032424494 0.0036187724 0.0058309496 0.0051394384
000270 36 a0 01 3c 91 ea 07 3c 5e 65 6c 3b 79 90 06 3b
       0.007911732 0.008295671 0.0036071162 0.002053289
000280 b0 66 39 3b 82 9e f8 3a 39 33 8d 3b 85 a7 db 3a
       0.0028289966 0.0018968137 0.0043090847 0.0016758299
000290 4a 63 05 3a 2e 8e c8 3b 94 80 d2 3b e0 6b af 3b
       0.00050883426 0.0061204648 0.006424019 0.005353436
0002a0 39 7b 1e 3b bd 0e 04 3c c1 23 60 3b 99 2e e0 3a
       0.0024182333 0.0080601545 0.0034200998 0.0017103731
0002b0 75 42 be 3b 9e a1 ef 3a b8 63 90 3b 72 a3 4d 3a
       0.005806262 0.0018282419 0.0044064187 0.00078444846
0002c0 31 ff 45 3b 3d 29 3c 3b 19 a6 fc 3b 95 0c 7b 3b
       0.003021192 0.0028711103 0.00771023 0.003830706
0002d0 60 01 fc 3b 67 5b 60 3b 02 55 0a 3b 71 8a 42 3b
       0.0076905936 0.0034234168 0.0021107798 0.0029684568
0002e0 b5 65 2a 3b ab e9 2a 3a c6 39 ba 3b 07 1e 36 3b
       0.0026000564 0.00065198046 0.0056831567 0.0027788894
0002f0 4c de a5 3a 48 72 02 3c 47 b8 a2 3a eb 12 8d 3b
       0.0012654751 0.007961817 0.0012414538 0.0043052337
000300 9a c3 d0 3a 3f f9 ca 3b 25 f7 37 3b e7 e5 a8 3b
       0.0015927434 0.006194263 0.0028070894 0.0051543596
000310 35 69 e2 3b 11 3b 39 3a 70 80 81 3a ea ad aa 3a
       0.0069095143 0.00070659915 0.0009880196 0.0013021801
000320 87 9d ff 3b 12 dd b8 b9 a7 e5 dc 39 91 3a 0a 3b
       0.007800761 -0.00035259925 0.00042132774 0.0021092037
000330 77 66 f2 3b 5a 3f 6d 3b 85 42 84 3b b7 36 f3 3b
       0.0073974687 0.003620109 0.00403625 0.007422294
000340 7f a4 91 3b 78 0c 36 3b 27 ce 0c 3c 21 76 2e 3b
       0.0044446583 0.0027778428 0.008594072 0.0026620703
000350 48 49 e5 3b cf 6a 93 3b a7 4e 2c 39 6f ef cd 3b
       0.006997261 0.0044988166 0.00016432499 0.006284646
000360 90 5e 26 3b 9b 3f 15 3b 2f a2 01 3b d3 8c 29 3b
       0.0025385953 0.0022773508 0.0019780507 0.0025871291
000370 e9 13 05 3c e1 17 81 3b de 34 4a 3b 92 4c b2 3b
       0.008122423 0.003939614 0.0030854265 0.005441257
000380 3c cd 0a 3c 62 3b 9d b9 21 f4 b0 3b 21 1f b9 3b
       0.008471783 -0.00029989617 0.005400196 0.005649463
000390 80 d1 37 b9 2b 83 90 b8 a1 c4 b0 3b 76 5b 1c 3b
       -0.00017530285 -6.890887e-05 0.0053945337 0.0023858226
0003a0 95 8e b3 3b a9 70 cd 39 2c f1 99 3b 33 15 f0 3b
       0.0054796436 0.00039184585 0.0046979394 0.007326746
0003b0 36 3b ee 39 0d 1e f0 3b c9 10 6c 3b c1 85 d9 39
       0.00045439013 0.007327801 0.0036020747 0.0004148912
0003c0 cc 9b 14 3b b4 44 c6 b9 c6 5e 2b 3b f1 2d 0d 3c
       0.002267587 -0.0003781669 0.0026149019 0.00861691
0003d0 ae b2 08 3c 4f f7 82 3b 49 fb 6e 3b 1c 22 9b 3b
       0.008343382 0.0039967666 0.0036465696 0.0047342908
0003e0 86 9c d0 3b 4e 62 4d 3b 6f 23 f1 3b df 11 0b 3c
       0.0063663153 0.0031339112 0.0073589603 0.0084881475
0003f0 9f a5 16 3a e5 dd 1a 3b e7 e2 e2 3b 71 ae a1 3b
       0.00057467254 0.0023630795 0.0069240215 0.004934125

projection.PT f4 [1, 3, 200, 36]
000000 ca 7a eb 3b cd ce 1f 3b 49 04 c6 3b bf 10 f0 3b
       0.0071862685 0.0024384737 0.0060429913 0.007326215
000010 0a 99 fa 3b 4b d9 82 38 8e bb 1c 3b 0b 92 0e 3c
       0.007647638 6.239357e-05 0.0023915502 0.008701812
000020 7e 59 96 3a 6e ec ed 39 e2 8c ca 3b ad 1a dd 3b
       0.0011470763 0.00045380316 0.0061813453 0.0067475648
000030 91 04 82 3b be d9 ed 3b 12 9e 5d 3b 67 69 51 3b
       0.0039678295 0.007258623 0.003381614 0.0031953694
000040 53 f8 32 3b c9 f7 bf 3a fb 71 e1 3a 45 ea c1 3b
       0.0027308657 0.0014645989 0.0017200107 0.0059178197
000050 e5 4b 51 3a ea 33 3b 3a 7c 10 79 3a 48 31 6e 3a
       0.00079840265 0.00071412197 0.00095010526 0.0009086323
000060 cf ce 07 3b 5d 6d 4c b9 2f 59 94 3b 34 38 e5 3b
       0.0020722633 -0.00019495697 0.004527233 0.0069952253
000070 5e 51 6b 3a 8e 43 fc 3b 6e 15 ac 3b e6 75 b8 3a
       0.0008976663 0.007698483 0.005251578 0.0014073222
000080 a7 ff 01 3c d4 c0 04 3c fb a3 aa 3b 8f c3 d9 3b
       0.007934487 0.008102614 0.0052075363 0.006645627
000090 eb fc e5 3b 31 7e 9e 3b 1a 39 d8 3a 2f bb 36 3a
       0.0070186756 0.0048368205 0.001649651 0.00069706416
0000a0 f0 22 07 3c 36 74 85 3b eb 8c a1 3b d3 9a c3 3b
       0.008248076 0.0040726913 0.004930129 0.005969384
0000b0 b2 08 7e 3b dc 25 d3 3a f3 b2 ca 3b bf c9 13 39
       0.0038762507 0.0016109305 0.006185883 0.00014094169
0000c0 86 0e 0d 3c ae 33 2c b9 e2 e2 db 3b 23 ed cf 3b
       0.00860942 -0.0001642245 0.006710396 0.0063454076
0000d0 14 25 08 3c 11 73 d4 3b c9 f7 5c 3b 7b e3 88 3b
       0.008309621 0.0064834435 0.0033717027 0.0041775084
0000e0 48 eb fc 3b d8 e8 d9 3b 18 93 0b 3c 93 bb b8 3a
       0.0077184774 0.0066500716 0.008518957 0.0014093987
0000f0 ab 89 b3 3b 63 7f f3 3b d6 ad 3f 3b b3 11 e3 3b
       0.005479058 0.007430957 0.0029247901 0.0069296
000100 b6 f1 08 3c 6f c2 97 b8 ad af 62 3b e8 f7 5c 3a
       0.00835841 -7.236457e-05 0.0034589574 0.0008429275
000110 50 bb 39 3b a9 1c 76 3b 4a e8 ea 3b a1 d6 bc 39
       0.0028340407 0.0037553704 0.0071688043 0.00036018065
000120 64 78 23 3b f4 83 e2 3b d0 fe 59 3b 3d 9b 93 3b
       0.0024943585 0.0069127027 0.0033263452 0.00450459
000130 0e 37 be 3b 97 93 ee 3b e9 ac f2 3b a2 7a 48 3b
       0.005804903 0.0072807777 0.0074058664 0.0030590673
000140 2b c8 02 3c d3 22 03 3b 53 be d1 3b 0d da 9a 3b
       0.007982294 0.002000977 0.0064008622 0.0047257007
000150 52 fc b6 3a 31 16 ff 3b 39 7f 10 3b ba f4 97 3b
       0.0013960695 0.007784628 0.0022048487 0.004637328
000160 05 e7 26 3a 55 36 fe 3b d1 a1 ae 39 34 c6 98 3b
       0.0006366822 0.0077579417 0.0003330843 0.0046622995
000170 09 11 31 3b 68 32 8a 3b a4 0e 8d 3b d0 57 02 3b
       0.002701821 0.0042174347 0.004304724 0.0019888766
000180 d0 3b 8c 3b 20 4f f3 3b d4 1f 05 3b 25 ac 48 3b
       0.004279591 0.007425204 0.002031316 0.0030620184
000190 fe 7b d6 3b bb a7 09 3c d0 ef 94 3b 26 f1 a0 3b
       0.0065455427 0.0084018065 0.0045451894 0.0049115596
0001a0 21 f8 fa 3b 48 34 32 3b 93 1b 72 b9 24 8d 34 b8
       0.007658974 0.0027191807 -0.0002308919 -4.304679e-05
0001b0 8a a0 03 3c 67 11 da 3b d5 2d 30 3b d6 11 89 3a
       0.008033881 0.0066549066 0.0026882787 0.0010457586
0001c0 78 aa 74 3b 5d c8 55 3b 37 26 5b 3b 42 de 60 3a
       0.0037333053 0.0032620647 0.0033439526 0.0008578041
0001d0 11 12 86 3b 68 cb 77 3b d9 93 c2 3b 3f 32 a8 38
       0.004091509 0.0037810449 0.005938035 8.020223e-05
0001e0 9a 67 9e 3b cc 98 09 3b be 29 c9 3b 58 75 d5 3b
       0.0048341276 0.0020995615 0.0061390093 0.0065142326
0001f0 84 62 00 3c c5 2f 32 3b 7a 65 44 3b 90 c1 ce 3a
       0.007835988 0.0027189117 0.0029967711 0.0015774239
000200 df e7 a4 3b 21 48 00 3c 1b 61 94 3b 17 83 a7 3b
       0.005032524 0.007829697 0.0045281774 0.0051120627
000210 33 78 c3 3a e4 61 eb 3b 00 79 e5 39 7d a7 f5 3b
       0.0014913141 0.0071833003 0.00043768436 0.007496773
000220 05 e6 b4 3b 1b 13 82 3b 8d 71 b6 b9 d1 22 a1 3b
       0.0055205845 0.0039695627 -0.00034798347 0.0049174805
000230 c5 c1 68 3b 3b 63 3e 3b ff 01 03 3c 06 87 88 3a
       0.0035515886 0.0029050845 0.007996081 0.0010416217
000240 f4 de d3 3b 68 af b9 3a a5 23 c4 3b 3a ef 6f 3b
       0.006465787 0.0014166655 0.0059856945 0.0036611096
000250 d1 fc e8 3a f5 a0 42 38 b1 9d 3f 3b b7 2e c6 3a
       0.001777554 4.6403107e-05 0.0029238279 0.0015120123
000260 b8 12 71 3b a0 a7 42 3b 74 bc ca 3b 54 41 3e 3a
       0.003678484 0.0029701963 0.006187016 0.00072576595
000270 e3 21 04 3b 16 5b 81 39 f4 3d 05 3c 13 e0 e1 3b
       0.00201618 0.00024672662 0.008132447 0.006893167
000280 02 5d 04 3c 66 f6 85 3b 0e 34 be 3b d6 c8 08 3c
       0.008078815 0.004088211 0.0058045452 0.008348664
000290 98 20 c2 3a b3 fd ad 3b 12 51 f7 3a 6b f7 9f 3a
       0.0014810739 0.0053097843 0.0018868765 0.0012204474
0002a0 27 ac 3b 3b 74 82 9a 3b 30 87 86 3b 5b 40 02 3b
       0.0028636546 0.0047152583 0.004105471 0.0019874785
0002b0 48 b0 5c 3b 36 f3 e5 3b 50 e6 a7 3a 6f a1 22 3b
       0.0033674408 0.0070175184 0.0012809727 0.002481546
0002c0 13 f6 a0 3b fa 2d 10 3c 2a 24 68 3b b2 7e 7c 3b
       0.004912147 0.008800024 0.0035421946 0.0038527665
0002d0 92 ed 65 3b 7b 96 c7 3b 67 62 c1 3b 9c 54 c8 3b
       0.003508423 0.0060909367 0.005901623 0.006113602
0002e0 05 8f 07 b9 1b 4c 8a 3b a4 1b bb 3b 70 4b a3 3b
       -0.00012927882 0.0042204983 0.005710082 0.004983358
0002f0 67 78 ca 3a b2 c7 72 3b 15 5e b8 3a 34 69 0c 3c
       0.001544726 0.0037045297 0.0014066125 0.008570004
000300 fe a6 a0 3b bf d9 f7 3b 73 37 63 3a e1 a9 32 3b
       0.0049027195 0.007563799 0.00086676254 0.00272619
000310 84 2e c3 3a 03 6a 66 3b 36 f6 a6 3b de 4e a8 b9
       0.0014891182 0.0035158403 0.0050952686 -0.00032102218
000320 bf d0 97 3b c8 b7 94 3b 3f 35 c5 3b 39 81 41 39
       0.004633039 0.00453851 0.0060183103 0.00018454053
000330 86 94 90 39 73 1d 02 39 73 6d c2 3b b0 4c 31 3b
       0.0002757648 0.00012408737 0.0059334575 0.0027053766
000340 c7 ea ad 3b ce f4 df 3b 3b fa 00 3c a3 4e d7 3b
       0.0053075287 0.006834603 0.00787216 0.0065706535
000350 1b 5a ad 3b 2f c4 f1 3a e3 b6 41 3b e9 71 e8 b9
       0.0052902824 0.0018445308 0.0029558472 -0.00044335358
000360 bd f2 05 3c 91 58 9f 39 0c 95 ae 3b 7a 71 67 3a
       0.008175549 0.0003039283 0.0053278264 0.000882886
000370 cd 46 05 3c f0 eb 7e 3b ac 1f bf 3b a1 7c fa 3b
       0.008134556 0.0038897954 0.005832633 0.0076442515
000380 6a 12 03 3c ba f8 91 3b ec f1 0b 3c 9f ef 09 3c
       0.007999996 0.0044546993 0.008541565 0.0084189465
000390 11 8d d6 3b 59 80 81 b9 51 94 e8 3b b6 35 15 3b
       0.006547578 -0.00024700424 0.007097759 0.002276761
0003a0 59 8c cc 3b ff 8f 04 3c 03 ac 05 3c c0 f0 eb 3b
       0.0062423167 0.008090972 0.008158687 0.0072003305
0003b0 11 80 a7 3a b4 b3 ed 3b 36 36 df 3b 22 6c 0c 3c
       0.0012779256 0.0072540883 0.0068118824 0.008570703
0003c0 d0 7b ee 3b 83 d9 94 3a 43 e1 fe 3b 3b dc a2 3b
       0.007277943 0.0011356327 0.007778318 0.004970101
0003d0 3b d4 93 3b f6 0f b1 3b d6 c9 83 3b c0 63 b0 3b
       0.004511384 0.005403514 0.0040218635 0.005382985
0003e0 26 55 92 39 28 4d 0d 3c b9 c3 b6 3b 28 66 11 b8
       0.0002791073 0.0086243525 0.005577531 -3.4665834e-05
0003f0 41 4d 62 3b 83 d6 78 3b 11 4a 92 3b cc 9e 0e 3c
       0.003453091 0.0037969656 0.004464396 0.008704852

basis_rotation.R f4 [1, 1, 36, 36]
000000 4e 6f 67 3f 06 75 14 3f 88 c5 55 3e c9 37 88 3e
       0.9040421 0.57991064 0.20876133 0.2660506
000010 86 91 72 3f fb 19 0c 3f 2f d3 0f 3f 65 0d ed 3e
       0.947533 0.54727143 0.56181616 0.46299282
000020 48 a4 1f 3f 4c 9d 36 3c df d0 14 3d 1a 79 2f 3f
       0.6236005 0.011145901 0.036332007 0.6854416
000030 13 3c 96 3e 7d 5c 1d 3f f2 a6 1e 3e 1c 7e a2 3c
       0.29342708 0.6146925 0.15493372 0.019835524
000040 98 74 ed 3e e3 73 3d 3e 2b fa 61 3d b7 5f 3a 3e
       0.46378016 0.18501239 0.05517022 0.18200575
000050 64 2e 4e 3f 04 98 9c 3e 9f 27 76 3f eb 0d 4b 3f
       0.80539536 0.3058473 0.96154207 0.7931811
000060 84 e1 5d 3e 74 e5 06 3e da 31 79 3e 37 4e 40 3f
       0.21668059 0.13173467 0.24335423 0.75119346
000070 c5 af cd 3e dd 67 40 3f 9c bb 28 3e c7 b5 06 3f
       0.40173164 0.7515848 0.16477817 0.5262112
000080 53 6a 30 3f 4b 7d 76 3e d1 82 a0 3d 73 c4 51 3f
       0.6891224 0.24071233 0.07837451 0.8194038
000090 8b 06 b4 3d 3a 6e 6f 3f a4 51 da 3e 6f d3 bf 3e
       0.087903105 0.9352757 0.42640412 0.37466
0000a0 cb ff c8 3e 6d a9 3b 3f cf 2a ba 3e cf 31 fb 3d
       0.39257655 0.733054 0.36360785 0.122653596
0000b0 e5 59 1d 3f 68 86 03 3f 48 34 22 3e c5 af f2 3e
       0.61465293 0.5137696 0.15840256 0.47399727
0000c0 1d 88 54 3e 0b 6a a3 3e df ef 63 3f 83 d3 c2 3d
       0.20755048 0.31916842 0.8903789 0.09512999
0000d0 97 56 00 3f f8 bd 20 3e 84 0b 78 3f 70 54 ab 3d
       0.50132126 0.15697467 0.9689257 0.083657146
0000e0 e0 a1 7c 3f 04 61 f1 3d 38 48 1b 3f 0a c9 16 3d
       0.986845 0.117860824 0.6065707 0.03681282
0000f0 2a 5f 73 3e c2 08 10 3f fd 64 ea 3e f6 79 b6 3e
       0.23766771 0.56263363 0.45780173 0.35639924
000100 96 5a 53 3f 9d df 91 3d 36 f6 5e 3f ce d5 b3 3c
       0.825601 0.07122729 0.8709444 0.021952536
000110 a1 e3 5a 3e bb d2 5e 3f 12 84 8d 3d 4d 24 56 3f
       0.21375896 0.870403 0.06909956 0.8364914
000120 e4 0e 87 3e e2 1e 0e 3f 10 7a e0 3e db ad 46 3e
       0.26378548 0.55515873 0.43843126 0.19402258
000130 9f b2 93 3d 17 3e 20 3f 30 20 04 3f fd ff 01 3f
       0.07211804 0.6259474 0.51611614 0.5078123
000140 ea 0f 71 3f 85 13 a4 3e 82 e0 44 3f bf 80 e1 3d
       0.9416491 0.32046142 0.7690507 0.110108845
000150 6e 54 40 3f 71 d5 0f 3f 09 91 83 3d c1 88 54 3e
       0.7512883 0.5618506 0.06424148 0.20755292
000160 2d 1f 1e 3f 5e df 6c 3f 96 09 00 3f 61 81 06 3e
       0.6176632 0.9252833 0.50014627 0.13135292
000170 5e eb 4c 3d 3b 1d c0 3e 2c f6 60 3f 35 ad 2d 3f
       0.05002915 0.375223 0.8787563 0.6784242
000180 dd 0d 66 3f 9c 46 2b 3f bc 5e 7a 3f 02 43 71 3e
       0.89864904 0.66904616 0.97800803 0.23560718
000190 20 89 cc 3e e2 74 fa 3e 97 3d 52 3d c6 85 4c 3f
       0.39948368 0.489173 0.051328268 0.7989162
0001a0 91 63 1e 3f 82 09 5c 3f 0f 75 8a 3e 77 97 2a 3f
       0.61870676 0.8595201 0.27042434 0.66637367
0001b0 b8 60 5c 3f 44 4c 2b 3f e2 4c d0 3e 98 66 68 3f
       0.8608508 0.6691325 0.40683657 0.90781546
0001c0 8d 90 5b 3f 73 8c 4d 3f f7 01 32 3f e8 81 6a 3f
       0.8576744 0.80292434 0.6953425 0.9160447
0001d0 67 bc 47 3e a7 20 59 3f 84 74 1b 3f a8 80 87 3c
       0.19505464 0.8481545 0.60724664 0.01654084
0001e0 ba d0 b8 3e d3 53 72 3f b9 e6 72 3f 90 8e bc 3e
       0.36096746 0.94659156 0.94883305 0.36827517
0001f0 9c 70 7b 3e 2a 6e d0 3e 94 e8 95 3d a0 ca 56 3f
       0.24554676 0.40709049 0.073197514 0.8390293
000200 f8 31 6e 3e ff 05 05 3f b4 b7 ff 3e a9 e4 f1 3e
       0.23261249 0.51962274 0.49944842 0.47244766
000210 9d f7 4c 3f 99 cf 66 3f 58 37 d9 3e d6 bf b2 3e
       0.8006533 0.9016052 0.42425036 0.34911984
000220 f8 c1 a4 3e ec 9f 54 3f 20 e2 1d 3d 6d 8a 70 3f
       0.32179236 0.8305652 0.038545728 0.9396122
000230 15 d8 62 3e c7 a9 7d 3f 3c da 3a 3e 61 5b 7a 3f
       0.22152741 0.99087185 0.18247312 0.97795683
000240 43 f7 4e 3f 0c e4 6d 3e eb d6 1f 3e 7c 4d 3b 3f
       0.8084604 0.23231524 0.15609328 0.73165107
000250 ba 0d f7 3e 0f 68 65 3f fc 1b 03 3f d6 67 5f 3f
       0.4825266 0.89611906 0.51214576 0.87267816
000260 d2 ee ff 3e 2a 5f 13 3f ea ce e5 3d a7 a6 00 3f
       0.49986893 0.57567084 0.11221106 0.5025429
000270 36 1d 7b 3e c5 1f c5 3e ef 86 3c 3f 35 e5 23 3e
       0.24522862 0.385008 0.7364339 0.16005404
000280 2c 3f dc 3e 6e d8 20 3f 8f f8 1e 3f de df 6b 3f
       0.43016946 0.62830245 0.6209802 0.9213847
000290 49 b3 cd 3d 8f d9 21 3d 45 3e 27 3f 51 24 30 3f
       0.100439616 0.03951412 0.6532939 0.68805414
0002a0 57 90 21 3f b0 f8 6a 3f fb 5b 33 3f 6c 3b 5b 3e
       0.6311087 0.91785717 0.70062226 0.21409386
0002b0 a4 cc eb 3d 39 bb 72 3f 17 6c d4 3d d2 6d d2 3d
       0.115136415 0.9481693 0.10372179 0.10274853
0002c0 4d 58 0b 3f fe b1 74 3c dc 6f 15 3e 13 14 04 3f
       0.5443161 0.014935015 0.14593452 0.5159313
0002d0 de 4a 87 3e 06 2b 20 3f 1a 9e 0f 3f 19 3c 49 3d
       0.26424307 0.6256565 0.5610062 0.04912958
0002e0 3b 14 c7 3d 05 38 13 3e 3f f2 15 3f c6 05 3a 3f
       0.097206555 0.14376839 0.58572763 0.7266506
0002f0 07 67 91 3e 78 4b 42 3f 59 d5 41 3f 53 fd 92 3c
       0.28398916 0.75896406 0.7571617 0.01794306
000300 b9 dd 7b 3f 99 18 19 3f 3e 4b a5 3e 72 9f 82 3e
       0.98385197 0.5980316 0.32283968 0.25512272
000310 f7 34 0d 3e c4 36 3e 3f 37 92 5f 3d a0 57 06 3f
       0.13789736 0.74302316 0.0545828 0.52477455
000320 b4 02 43 3e 3b e1 1a 3e e4 ca f0 3e 20 b5 4e 3f
       0.19044 0.15124981 0.47029793 0.80745125
000330 da 34 60 3f 38 1f 12 3f a6 51 14 3e 0f af ed 3d
       0.87580645 0.57078886 0.14484271 0.116056554
000340 57 22 01 3f b6 05 21 3f c8 c4 eb 3c c2 0c 4f 3f
       0.50443023 0.6289934 0.028780356 0.8087884
000350 79 1d 20 3f 8e 49 0e 3f 2c c2 14 3f bb 36 2d 3f
       0.6254497 0.55580986 0.5810878 0.6766164
000360 d6 99 85 3e 85 26 dd 3e 38 b3 28 3d 1e 33 64 3d
       0.2609393 0.4319345 0.04118654 0.05571281
000370 03 11 1a 3f 6a 24 ed 3e 50 da c3 3e 27 fa 2c 3c
       0.6018221 0.46316844 0.38252497 0.010557688
000380 b8 ef 64 3f 50 ca 7e 3f 91 59 8e 3d aa f0 1f 3f
       0.8942828 0.99527454 0.06950677 0.624766
000390 12 1e 34 3f 13 7c 20 3e 01 6d 5d 3f 86 9a 20 3e
       0.70358384 0.1567233 0.8649445 0.15683946
0003a0 c7 f3 0e 3f 32 12 58 3f de 83 8c 3d 11 52 cc 3e
       0.55840725 0.84402764 0.06861089 0.39906362
0003b0 a5 02 2e 3f 2d 7e 03 3e 89 ff 21 3f c5 c7 a6 3e
       0.67972785 0.12841101 0.6328054 0.32574287
0003c0 6f 59 ad 3e 5b 14 e3 3d ff 50 d0 3e c2 fa 03 3f
       0.33857295 0.11087867 0.40686795 0.515545
0003d0 bd e6 d2 3c a4 09 19 3f 32 b5 15 3f 53 be 7b 3f
       0.02574479 0.59780335 0.5847961 0.98337287
0003e0 d1 7b 53 3f 7d 6b b4 3e 09 5b 08 3e ee c1 7a 3f
       0.82610804 0.35238257 0.13315977 0.97952163
0003f0 61 04 69 3f f6 a6 1d 3f f1 15 e7 3d 5e fe 1d 3f
       0.91022307 0.6158289 0.11283482 0.6171626

vectorizer.X f8 [1, 1, 36]
000000 45 fd 8e 5e 29 ce e2 3f 99 4a 37 e9 50 c1 e1 3f
       0.5876662108275147 0.5548481516837739
000010 71 29 28 ec a0 19 e2 3f 53 4d 01 bd fd ba e3 3f
       0.5656284916342839 0.6165760699754322
000020 e2 10 11 58 a5 0b ed 3f 89 ab 50 0d 51 a8 e0 3f
       0.9076716156055478 0.5205464611111533
000030 c0 c3 0c f3 6f 41 ea 3f 3e 53 3c 80 01 c4 ec 3f
       0.8204879519527069 0.8989264969446606
000040 e3 9c c6 87 05 15 e9 3f 84 1c d8 a1 fa 6a ef 3f
       0.7838161136504848 0.9818089638728371
000050 7c 0b 1b 09 01 e9 e1 3f 22 03 6f 70 91 af e5 3f
       0.5596928766102418 0.6776816554994165
000060 bb b2 10 97 cc 85 ef 3f 5e 8f 1c ed 95 2f e5 3f
       0.9850829077236861 0.6620587950787742
000070 73 a4 cd ae ac fe e5 3f 6b 88 75 b3 da ed e9 3f
       0.6873382009627121 0.8102849488316343
000080 b2 5e d2 af 1b 2e eb 3f 78 08 03 b0 7b a8 e5 3f
       0.8493784364718151 0.6768167913180738
000090 07 21 c2 00 fe cc e5 3f 8f e7 71 a8 4c 3b ed 3f
       0.6812734618006581 0.913488701814673
0000a0 5e 1e dc b8 4c 9a e3 3f bd f5 66 cc ee 05 ed 3f
       0.6125854120773047 0.9069742195348948
0000b0 c7 8a f9 d6 dd 91 ea 3f 9e 2d 82 99 58 c8 e2 3f
       0.8303059767461826 0.5869563101018007
0000c0 f5 32 81 19 db 62 ea 3f d0 65 94 ba 4c d4 ed 3f
       0.824567365468822 0.9321654934057566
0000d0 2a c8 44 43 89 a6 ed 3f f5 77 71 0e 8c 97 e5 3f
       0.926579123863353 0.6747494012922731
0000e0 2f e2 9c 51 c7 da ef 3f cd 09 1d 0d 03 c1 e5 3f
       0.9954563707352174 0.6798110252496429
0000f0 b3 71 e8 40 07 9e e3 3f 63 0f ca 6e 01 49 ed 3f
       0.6130405681356507 0.9151618160108054
000100 fc 8f 94 d5 87 2c e7 3f 44 7b 55 50 98 cb e3 3f
       0.7241858645907082 0.6186029023191186
000110 1f 47 07 13 b4 a8 e0 3f f9 e3 d8 8b 1a 29 e8 3f
       0.5205936786316875 0.7550175410643752

linear.weight f4 [1, 36]
000000 ca e7 a4 3b 01 b3 ac bd 9d 4d 00 3c 73 cb 3e 3d
       0.005032514 -0.0843258 0.007831004 0.046580743
000010 a4 7b ca 3d fd a9 f8 3d 1e de 03 be 19 e5 0e be
       0.09886864 0.12141798 -0.128777 -0.13954581
000020 de 5d cd bd e4 4d 55 3d 8e e2 b8 bd 70 91 71 bc
       -0.10027669 0.052076235 -0.09027587 -0.014744148
000030 6e 35 a4 bd 4e 88 17 bd d8 2b 0d be 12 40 1f 3e
       -0.080180034 -0.036995225 -0.13786256 0.15551785
000040 58 7c 7c bc 05 24 36 3b 10 6f 27 be 11 90 df bd
       -0.015410505 0.0027792465 -0.1635096 -0.1091615
000050 55 e6 67 3c 16 74 21 3e 18 ba 5b bd ea f4 bb bc
       0.0141540365 0.1576694 -0.05364427 -0.022943933
000060 31 c2 85 bd 8a 9d fd 3d ba 91 1e be 1c 49 ff bd
       -0.0653118 0.12383564 -0.15485278 -0.124651164
000070 af 3e 26 3e 8c b9 06 be cf 70 28 3d 5b 0e ff 3d
       0.1623485 -0.13156718 0.041123208 0.1245391
000080 09 af 88 bd ee 2d c5 3c d6 45 20 be ef 08 0e be
       -0.0667401 0.024069753 -0.1565164 -0.13870595
