build_tools/disc_saves.pth (torch_old, 15893 bytes, 3 tensors)

projection0.P f4 [5, 3, 1, 50]
000000 b9 14 65 3e 6f 95 d1 3d 0a 64 0c 3e cb ab bd 3c
       0.22371186 0.1023358 0.13710037 0.023153206
000010 75 d7 d2 3c 9a 7d 9c bb de ef 55 3d ed 77 20 3e
       0.025737504 -0.004775715 0.05223071 0.15670748
000020 2d 67 6d 3e 5a 40 2f 3c f1 b5 44 3e 87 eb 88 3e
       0.2318389 0.010696495 0.1921003 0.26742193
000030 f0 c7 8b bd 12 6f 6b 3a 1f d8 b6 3d 86 63 51 3e
       -0.068252444 0.00089810893 0.089279406 0.20448121
000040 10 32 3c 3e 2b 1e 33 3e b9 54 a9 3d 2a 18 81 bd
       0.18378472 0.17491977 0.08268113 -0.06303437
000050 21 1a 06 3e fb 7f b2 3d 2b 14 96 3c 8b b2 9c 3e
       0.13095905 0.087158166 0.018320164 0.30604967
000060 cc 4c d9 3d 94 0d 85 3e 5e 27 28 3e 3a e6 7f 3e
       0.10610351 0.25986922 0.16421267 0.24990168
000070 f9 2b 50 bd cb e5 63 3d f1 21 34 3d 7b 9f 80 3e
       -0.050823186 0.05563907 0.04397768 0.25121674
000080 16 54 f1 bb 64 3d 25 3e 60 b8 11 3e 4a 06 aa 3d
       -0.00736476 0.161367 0.1423049 0.08301981
000090 d9 92 c9 3a 75 e0 e7 3d 2c 87 46 3e 82 31 19 3c
       0.0015378847 0.11322109 0.19387501 0.0093501825
0000a0 28 a7 96 3c 73 ef 47 bc dc 4c 34 3e 12 70 5e 3e
       0.018390253 -0.012203085 0.17607445 0.21722439
0000b0 85 1e 61 bd 72 a4 35 3c 66 fe 5f 3e b8 0b 85 3b
       -0.054960746 0.01108657 0.21874389 0.004060235
0000c0 7a 02 82 3e 32 ac e1 3c 4f a5 93 3d 23 77 11 3e
       0.25392514 0.02754793 0.072092645 0.14205603
0000d0 52 7e 67 3e 38 4d a3 bb 3b 2b 9f bc a3 ea 98 3c
       0.22606781 -0.0049835704 -0.019429794 0.018666571
0000e0 b5 be 03 3e 2e 52 3e bd 61 d3 4a bc 5d 84 e4 3d
       0.12865718 -0.04646509 -0.012379498 0.11158059
0000f0 db 95 91 3d 56 f7 3c 3c e9 85 28 bd b1 40 3c 3c
       0.07108661 0.011533579 -0.04114333 0.011490033
000100 a8 fc f8 3d 5e 90 d8 3d bd dc 8e 3d dc 8d 63 bd
       0.12157565 0.10574411 0.06975696 -0.05555521
000110 c2 33 f0 3b ea be 14 3e 3f e7 87 bc f8 db 7a 3d
       0.0073303888 0.14525953 -0.016589759 0.061244935
000120 cf c2 8d 3e 02 0d 50 3e b2 1b 75 3d 37 79 c4 3d
       0.2768769 0.20317462 0.059840865 0.095934324
000130 6f 63 64 3d c4 51 8d 3e ff 7d 98 3e 40 c3 8e 3e
       0.05575889 0.27601445 0.29783627 0.2788334
000140 88 c4 21 3d e6 a7 54 3e c9 0f 85 3e d0 2c 0c bd
       0.039494067 0.20767173 0.25988606 -0.034222424
000150 4c aa 51 bd 9c 75 f4 bd a7 23 84 bc 96 7c 16 3e
       -0.0511878 -0.11936495 -0.016130282 0.14695963
000160 3c f1 41 3e e3 f1 ce 3d f5 18 9c bd ac d7 90 3b
       0.1893968 0.1010473 -0.07621948 0.0044202413
000170 a2 34 06 3e 01 b1 c4 3d d7 ee 0c 3e 8c 26 3e bc
       0.13106015 0.09604073 0.13762985 -0.01160587
000180 64 33 34 3d 60 5e e0 3d dc c7 d0 3c 8e c9 97 3c
       0.043994322 0.109555006 0.025485925 0.018528726
000190 f2 e1 09 bd 86 b5 dc 3d 96 16 81 3c c9 92 69 3e
       -0.033662744 0.1077681 0.01575784 0.228099
0001a0 c2 06 0c 3e 10 7a cb 3d 9f 93 95 3d ef 59 48 3e
       0.13674453 0.09935391 0.07303547 0.19565557
0001b0 4e 58 cc 3d 35 51 01 3e 03 e4 88 3d 90 b3 54 3e
       0.0997778 0.12628634 0.06684115 0.20771623
0001c0 54 aa 88 ba 82 ea 00 3e d6 ea 0c 3e 92 01 1a 3e
       -0.0010426738 0.12589458 0.13761458 0.15039662
0001d0 31 a2 73 3e 21 c7 6d 3e 6b 39 25 3e 47 6f 2f bb
       0.2379234 0.23220493 0.16135184 -0.0026769207
0001e0 ba 2b 97 bd 9f b6 36 3e bc a0 f9 bc 84 9b 70 3d
       -0.07381387 0.17843102 -0.030472152 0.05874206
0001f0 66 d3 ba 3d e8 da 5a bd 34 40 4f 3e d9 e6 84 3c
       0.09122352 -0.05343142 0.20239335 0.016223358
000200 ae 4c 48 3d ed 99 bf bd 41 07 91 bd 61 57 85 3d
       0.048901252 -0.09355531 -0.07081462 0.06510807
000210 10 d8 dc 3d 11 1d 47 3e 0e 0e 0a 3e 4e a6 3b 3e
       0.10783398 0.19444682 0.13481924 0.18325159
000220 fd 49 9c bd 50 ae ba 3d 4b d6 d0 3d fd 71 e6 3c
       -0.076313 0.09115279 0.10197123 0.028130526
000230 f4 83 41 3e 55 1d 91 3e 25 df 91 3d 09 b5 7b 3e
       0.18897992 0.2834269 0.071226396 0.24580778
000240 8a 86 c0 3d b2 2d 36 3e 2a cf db 3d 12 ad 52 3d
       0.09400661 0.17790869 0.10732873 0.051434584
000250 67 7a 0e 3e e1 7c 7c 3e a4 8d 24 3e ea 3a 36 bd
       0.1391388 0.24657013 0.16069657 -0.04448978
000260 23 59 07 3e 0d 1a a5 bc d4 77 3c 3e dc 0f 40 3e
       0.13217597 -0.020154024 0.18405086 0.1875605
000270 41 ee 81 bd 79 67 50 bc e9 ec 33 3e 8f 7a 0c 3e
       -0.063442715 -0.012719982 0.17570843 0.13718627
000280 80 e6 39 3e b9 1b 46 bd 85 87 1b bc a0 06 e2 bc
       0.18154335 -0.048366282 -0.00949276 -0.02759105
000290 c0 18 f2 3d bd 51 a1 bd 54 79 54 3e 4a 3b 34 3e
       0.11821127 -0.078769185 0.20749408 0.17600742
0002a0 10 c5 88 3c 47 6c c3 3d 1c 43 c0 bd a5 f2 0a 3d
       0.01669553 0.09542137 -0.093878 0.03392281
0002b0 a9 eb 14 bd 80 47 57 3d 20 89 51 3e 50 63 31 3e
       -0.036357556 0.052558422 0.20462465 0.17323041
0002c0 f0 38 1e 3e 0b 4e 0f 3e 19 14 88 3e 6f 58 ee 3d
       0.15451407 0.13994615 0.26577833 0.11637961
0002d0 d3 8c 8a 3a fa f7 69 3d 0c d9 f6 3c 8f af 2b bc
       0.0010570533 0.057121255 0.030132793 -0.010478868
0002e0 d3 6f af 3d db da 62 3e a3 c9 83 3e 57 24 05 bd
       0.08566251 0.22153799 0.25739774 -0.03250536
0002f0 96 13 58 3e 11 14 8f 3d d6 85 cd 3d b8 2e 45 bd
       0.21101221 0.06986249 0.10035293 -0.048140258
000300 d7 7c e4 3d e3 06 ab 3d ee 86 42 bd f8 aa 83 3e
       0.11156624 0.08350923 -0.04749196 0.25716376
000310 05 ab 39 3e 1f c2 ac 3d bd 3a db bb 8a fd 56 3e
       0.18131645 0.08435463 -0.0066903518 0.20995155
000320 c7 81 d7 bc 49 9e e8 3d ca a5 82 3e ae 0e 8e bd
       -0.026307 0.113583155 0.25517112 -0.06936394
000330 e9 fb 6f 3e df b8 8a bd 1c 4b 19 3e 7e 20 10 3e
       0.2343594 -0.067735426 0.14970058 0.14074895
000340 f6 40 9d 3d ee a5 39 3e 93 59 20 bc b6 1b 31 3d
       0.07678406 0.18129703 -0.009786981 0.043239318
000350 74 e7 4f 3e 2d 30 81 3e aa 6d a0 3e df 3e 5d 3e
       0.20303136 0.25232068 0.31333667 0.21606015
000360 a6 6d 53 3d ae 47 4f bd ec 8e 23 3e b2 1a 69 3e
       0.05161824 -0.05060547 0.15972489 0.2276409
000370 7f 81 89 3e 56 67 8f 3e 03 51 66 3e f9 2f 21 3e
       0.2685661 0.28008527 0.22491841 0.15740956
000380 ae 05 f6 3c 91 03 ed 3d 27 7c 6a 3e 64 83 58 3e
       0.030032005 0.11572946 0.22898923 0.21143872
000390 fd 0e a5 bd df b4 81 3e 30 ab dd 3d 7c 53 dc 3d
       -0.080594994 0.25333306 0.10823667 0.10758111
0003a0 22 c1 24 3e 19 cb 47 3e ba a4 58 3e 43 80 1c 3e
       0.160893 0.1951107 0.21156588 0.15283303
0003b0 93 dc 8c 3d ec 21 37 bc 3d 3e 5a 3e 5f 31 f4 3d
       0.06878009 -0.011177521 0.21312805 0.11923479
0003c0 24 e6 8a 3e da 40 58 3e 12 76 95 bd e8 a5 2b 3e
       0.27128708 0.21118489 -0.07297911 0.16762507
0003d0 33 79 ca bd 3a 05 cb 3d 63 e0 8b 3d c9 4c 62 3d
       -0.09886398 0.09913106 0.06829908 0.05524901
0003e0 36 bd a9 3c af 85 ec 3d 57 cd 3e 3d 2b 1d 1e bc
       0.020720106 0.115489356 0.046582546 -0.009650509
0003f0 9a 45 5f 3e de 84 28 3e 0e f1 5f 3e d8 bd 56 3e
       0.21803895 0.16456935 0.21869299 0.20970857

projection0.PT f4 [5, 3, 200, 1]
000000 94 91 96 bc 15 b6 a7 3d 7d 7e 72 3e 81 8d 81 3e
       -0.018379964 0.08189026 0.23681064 0.2530327
000010 e3 cd 47 3e 87 27 0f 3e 2b 73 2f 3d de 63 b9 bc
       0.19512133 0.13979922 0.042834442 -0.022630628
000020 5c 85 e1 3d 3b c6 75 3e 03 d7 bf bc b5 53 46 3e
       0.110117644 0.240014 -0.023417955 0.19367869
000030 93 3d 85 3d d8 83 fe 3d 7b f1 73 3e ac 3e a8 3c
       0.06505885 0.12427491 0.23822586 0.020537697
000040 91 12 fe bc 64 db 6c 3d ec b5 c0 3d c3 94 69 3e
       -0.031014713 0.057826415 0.09409699 0.22810654
000050 2b a6 61 3e 3a 91 9d 3b 73 c6 ab 3d 09 ca 04 3e
       0.22036044 0.004808572 0.083874606 0.12967695
000060 5e 25 c9 3d f7 13 90 bb 7a c7 2a 3e 51 d0 85 bd
       0.0982158 -0.0043969112 0.16677657 -0.06533874
000070 75 8a 61 3e 08 0e 00 3d e3 c7 68 3c 92 5c 33 3e
       0.22025473 0.03126338 0.014207813 0.17515782
000080 63 6a aa 3d 1e d8 c0 3d 28 e1 32 3e 78 0b 15 3c
       0.08321073 0.09416221 0.17468703 0.009096973
000090 5b 0b e7 3d dc 97 25 3e c4 b5 1f 3e d4 b2 55 3d
       0.11281463 0.16171211 0.15596682 0.052172497
0000a0 fe 11 b7 3d 4b 1a 5c 3d 3b 0f 05 3d f3 39 98 bd
       0.089389786 0.053736012 0.032485228 -0.07432928
0000b0 72 c7 5e 3e 34 a2 f0 3c 66 e3 39 3e 69 8a 9f 3e
       0.2175577 0.02937422 0.18153152 0.31160286
0000c0 a7 9e 8c 3e e2 4b 68 3e 2a 95 59 3d 99 b4 d2 bd
       0.27464792 0.22685197 0.05312077 -0.102883525
0000d0 50 d5 bd 3c 81 90 6a ba 77 fe a0 bd f4 aa 43 3e
       0.023173004 -0.00089479244 -0.07861035 0.19108182
0000e0 17 1e 7d 3e ac ff 76 3d e2 56 a2 3d 73 f6 6e 3b
       0.2471851 0.06030242 0.07926728 0.0036462813
0000f0 f7 ec 26 3e 4e af 13 bd 08 d4 2f 3e e9 73 a7 3d
       0.16301332 -0.036055855 0.17170727 0.08176405
000100 d6 d2 fb bd 12 7e 8f bd 24 52 f5 3d 43 77 43 3e
       -0.12296073 -0.07006468 0.11978558 0.19088463
000110 85 00 22 3e fa e7 60 3e 9b 98 7f 3c a1 42 8f 3c
       0.1582051 0.21963492 0.015600349 0.017487826
000120 fa e1 d2 bb 1e c0 34 3e 5d 17 a1 3c 1a 7c 9f bd
       -0.00643563 0.17651412 0.01966446 -0.07787342
000130 1d b7 50 bb 16 02 54 3e 0f b0 04 3e a4 05 81 bd
       -0.0031847425 0.2070392 0.12957786 -0.06299904
000140 a6 0b c0 3d 55 31 82 3e 67 14 9f bc a8 df 9c 3d
       0.09377222 0.25428262 -0.019418908 0.076598465
000150 6a 8a e7 3b 5a b7 41 3e c0 fa 0e 3e 31 65 fc bb
       0.007066061 0.189176 0.13962841 -0.0077024926
000160 cb 14 16 3e b4 03 2e 3e 80 fe 69 3d ea 3e 8c bc
       0.1465637 0.169936 0.057127476 -0.017119844
000170 92 02 c9 3d 60 46 08 3e 86 be 4c 3d 47 a2 de bc
       0.098149434 0.13308096 0.049986385 -0.02717699
000180 d0 7d 1b 3d d8 a1 81 3e 66 23 40 3e a4 99 0f 3e
       0.03796178 0.2531879 0.18763503 0.14023453
000190 c1 e9 0d 3e 9b fe 91 3d 79 f3 6a 3e c0 77 20 3e
       0.13858701 0.0712864 0.2294444 0.15670681
0001a0 bd dc b7 bc ac b0 4f 3e 3d cc dd bd 89 e6 e6 3d
       -0.022444123 0.20282239 -0.10829971 0.1127444
0001b0 82 37 1d 3c 46 93 b8 3c 1d f0 cb bc d7 69 88 3e
       0.009595754 0.022531163 -0.024894768 0.2664325
0001c0 b6 d6 ae 3b ed bd c7 3d 64 c2 16 bd 40 b7 b5 3c
       0.005335654 0.09753022 -0.03680648 0.022182107
0001d0 22 5e 49 3e ae d7 7a 3d fd da c6 3d be 1a 15 ba
       0.19664815 0.061240844 0.097097374 -0.0005687884
0001e0 60 fa c8 3d aa f4 23 3e 2e f3 50 3e 24 e2 a1 3d
       0.0981338 0.160113 0.20405266 0.07904461
0001f0 24 8a b1 3c 72 21 be 3c f3 09 a4 bd 62 48 80 3d
       0.021672316 0.023209307 -0.0800971 0.06263806
000200 b6 0c 57 bd 31 78 b1 3c 1f 63 f8 3c 25 96 7d bd
       -0.052502356 0.021663757 0.030320702 -0.061910767
000210 c0 58 58 3e 6b 5e 63 3e 28 e7 38 3e 9d 32 3d bd
       0.21127605 0.22203986 0.18056929 -0.046190847
000220 31 12 5c 3e a7 ca 82 3d 28 0f 9c 3b 0e 2d 01 3d
       0.21491314 0.06386309 0.004762549 0.031537108
000230 f1 99 44 3e ca 39 01 3e f5 c8 6d 3e 9d 0b 5a 3e
       0.19199349 0.12619701 0.2322119 0.21293493
000240 f2 18 68 3e 1a 71 5f bd d3 68 8e 3d 72 fc 78 3e
       0.22665766 -0.05455122 0.069535874 0.2431505
000250 0c 7f 11 3e 47 e8 2e bd c5 f7 5c 3e 2b 9f 22 3e
       0.14208621 -0.042701986 0.21578892 0.1588103
000260 ed d3 85 3d 6a 59 1e 3e 34 64 7c bd dd b6 39 3e
       0.06534562 0.15463796 -0.061619 0.18136163
000270 c6 25 6a 39 f9 b4 99 bb 48 83 77 3e 3f 06 6d bd
       0.0002233005 -0.004690763 0.24171174 -0.057867285
000280 9e a7 12 bd c1 af 12 3e 04 46 16 3c c1 35 87 bd
       -0.035804383 0.14324857 0.009171966 -0.066020496
000290 7c 05 fe 3d b0 84 e4 3b 0e ce 04 bd da 6a a2 3d
       0.1240339 0.0069738254 -0.03242307 0.079305366
0002a0 9d b1 95 3d 56 94 d6 3d c7 1c 98 bc 47 2e 1e 3e
       0.07309268 0.104775116 -0.01856841 0.15447341
0002b0 3d 96 a6 bc fc 93 12 3e 69 b1 8a 3e b2 70 0e 3d
       -0.020335311 0.14314264 0.27088478 0.034775443
0002c0 2a 5a 36 3e 3a c0 18 3e f0 d8 34 3e 8d ce 6f 3e
       0.17807832 0.14917079 0.1766088 0.23418637
0002d0 6b f9 02 3e 92 43 f2 3b f0 1f d6 3c 79 a6 f3 bc
       0.12790458 0.007393309 0.026138276 -0.029742466
0002e0 18 d0 4d bc f5 41 24 3d 3e 5b 35 3b 00 46 8b 3e
       -0.01256182 0.040101964 0.0027672793 0.27201843
0002f0 12 3e 2e 3e b6 75 91 3b 52 9e 11 3e 58 3f 56 3e
       0.17015865 0.004439081 0.1422055 0.20922601
000300 4e 52 01 3e d5 64 b4 3d 14 2a 21 3e ea 7e 55 3e
       0.12629053 0.08808295 0.15738708 0.20849195
000310 d0 d8 17 bd f5 3c 59 3e 34 de 31 3e 90 1b cd 3d
       -0.037072003 0.2121466 0.1736992 0.10015023
000320 bf 89 6e bd 25 82 24 bd 85 40 ac bc ad 5d 38 3d
       -0.058236834 -0.040163178 -0.021026859 0.04501121
000330 09 8b 6d bd 7a 5f 60 3e cd a8 87 3e 6a f0 2c 3c
       -0.057993922 0.21911421 0.26495972 0.010555366
000340 57 d5 8e bc ec fe 61 bc 90 7e 84 3d dd 15 27 bd
       -0.017435713 -0.013793688 0.064694524 -0.040792335
000350 80 b7 b5 3d 68 a1 d5 3c c2 58 cb bc fc 69 30 3e
       0.088728905 0.026077941 -0.024822596 0.1722793
000360 6e 96 22 3e e4 e5 2a bc aa bb dc 3c c8 a2 bf 3d
       0.15877697 -0.010430787 0.026944954 0.0935722
000370 a2 92 c9 3d 29 14 18 3e 38 87 3f 3e e6 5a 92 3c
       0.09842421 0.1485144 0.18703926 0.01786561
000380 02 3e ad 3c e2 ba c9 bd 10 d3 51 3e 9e d7 e0 3d
       0.021147732 -0.09850098 0.2049067 0.10978626
000390 24 2d bd 3d 7f ad e1 bd f3 f8 21 be 27 5f d3 bd
       0.092371255 -0.1101942 -0.15817623 -0.10320883
0003a0 12 af e6 bd bb 10 fe bd 99 b0 4a 3e 53 f4 91 3e
       -0.11263861 -0.12405535 0.19793929 0.28506717
0003b0 0f 43 b7 3e be de 5e 3e fe 7f 0d bb 15 bb eb bd
       0.3579335 0.21764657 -0.0021591182 -0.115102924
0003c0 f3 4a 41 bc c7 7b b1 bd 9f d8 9c bc ff b1 0d 3e
       -0.011797654 -0.08666187 -0.019146262 0.13837431
0003d0 11 91 32 3e 2f 50 62 3e fc 39 31 3e 99 b0 59 3c
       0.17438151 0.221009 0.17307276 0.013286733
0003e0 70 6b 8e 3d fd 0c a8 3e 58 09 16 bd 77 7a 15 3e
       0.06954086 0.3282241 -0.036630005 0.14597498
0003f0 b2 7e e4 3c 2f 65 3c 3e 90 99 d2 bd 65 59 a0 bd
       0.027892444 0.18397973 -0.10283196 -0.07829551

linear.weight f4 [1, 5]
000000 61 10 32 3d 6c 87 57 3e ce ea 9a be 25 05 92 be
       0.04347265 0.21047753 -0.30257267 -0.2851955
000010 f2 ee 05 3e
       0.13079432
